phoenix-drone-simulation/examples/results/torch_save/model.pt (torch, 49900 bytes, 14 tensors)

obs_oms.mean f4 [34]
0	0xbbf9a99b	-0.0076190955
1	0xbb7f01de	-0.0038911025
2	0x3f7b536d	0.9817417
3	0x3a571006	0.0008203987
4	0x3b0cff73	0.0021514564
5	0x3c27180f	0.010198607
6	0x3f20873c	0.6270635
7	0xba1a357e	-0.0005882605
8	0xbc96724d	-0.01836505
9	0xbe0e9896	-0.13925394
10	0xbcef9dc6	-0.029250037
11	0x3cc6d26e	0.024270263
12	0xbf9e5561	-1.2369806
13	0x3e4392b0	0.19098926
14	0x3e363fd6	0.17797789
15	0x3e48b710	0.19601083
16	0x3e39a947	0.1813098
17	0xbbf9d150	-0.007623829
18	0xbb859522	-0.004076616
19	0x3f7af5dc	0.980314
20	0x3a459ffe	0.00075387943
21	0x3b094409	0.0020945093
22	0x3c285a49	0.010275432
23	0x3f207683	0.62680835
24	0xb9d8b5d8	-0.00041334215
25	0xbc99f3c3	-0.018792992
26	0xbe141618	-0.14461553
27	0xbcfdd739	-0.030986415
28	0x3cbdaf5a	0.023154903
29	0xbf9e9121	-1.238804
30	0x3e430749	0.19045748
31	0x3e354dff	0.17705534
32	0x3e46fb2a	0.19431749
33	0x3e38c5f8	0.18044269

obs_oms.std f4 [34]
0	0x3e85bad4	0.261191
1	0x3e74e732	0.23916319
2	0x3e5aea58	0.21378458
3	0x3dbbb96b	0.09166225
4	0x3dbec95f	0.09315752
5	0x3f34eceb	0.7067401
6	0x3e9d80a0	0.30762196
7	0x3f0549b5	0.52065593
8	0x3ef9f178	0.4881704
9	0x3f00c36d	0.50298196
10	0x3f9939ca	1.1970761
11	0x3fa1119a	1.2583497
12	0x400abd0f	2.1677892
13	0x3ecb1074	0.3966099
14	0x3ed31b3d	0.4123172
15	0x3ee2ae12	0.4427343
16	0x3edc7857	0.43060562
17	0x3e875739	0.26433733
18	0x3e77eaf6	0.24210724
19	0x3e5e965a	0.21737042
20	0x3dbcae91	0.092129834
21	0x3dc04598	0.09388274
22	0x3f34f0ae	0.7067975
23	0x3e9d898e	0.30769008
24	0x3f06fc79	0.5272899
25	0x3efd5441	0.49478343
26	0x3f03fbc4	0.5155604
27	0x3f9ab2a2	1.2085764
28	0x3fa2bcb9	1.2713844
29	0x400b2a64	2.1744623
30	0x3ecae971	0.39631227
31	0x3ed33da8	0.41257977
32	0x3ee2a047	0.44262907
33	0x3edca82f	0.43097064

pi.log_std f4 [4]
0	0xc08c3cd7	-4.3824267
1	0xc08c3cd7	-4.3824267
2	0xc08c3cd7	-4.3824267
3	0xc08c3cd7	-4.3824267

pi.net.0.weight f4 [50, 34]
0	0xbe362111	-0.17786051
1	0x3e4a256a	0.19740835
2	0x3d59ce44	0.053175226
3	0xbde33a05	-0.11095051
4	0x3c1485a5	0.009065066
5	0x3db06ced	0.08614526
6	0x3dc0ef3b	0.094206296
7	0xbe0002c7	-0.1250106
8	0x3dc04fa2	0.09390189
9	0x3dcb02ea	0.09912665
10	0x3d367125	0.044541497
11	0xbe193cac	-0.1496455
12	0xbe1b53f7	-0.15168749
13	0xb8ffc818	-0.00012196618
14	0x3e0ecf90	0.13946366
15	0xbdf78e14	-0.12087646
16	0xbe445118	-0.1917156
17	0x3db4d8ec	0.08830437
18	0x3e70fb70	0.23533416
19	0xbd22c67f	-0.039740082
20	0xbe1f8668	-0.15578616
21	0xbe86acc4	-0.26303685
22	0x3eb494b7	0.3526971
23	0x3b382d91	0.0028103332
24	0xbc9665bc	-0.018359058
25	0x3e42e8ab	0.19034068
26	0xbe151cc2	-0.14561751
27	0xbdf76dd5	-0.12081496
28	0x3e105f7f	0.14098929
29	0x3ddcbaac	0.10777792
30	0xbd03a3d0	-0.032138646
31	0x3e0da1e6	0.1383129
32	0x3a51fd06	0.0008010421
33	0xbdc40e51	-0.09573043
34	0x3e288c96	0.1645988
35	0x3d3838c9	0.04497603
36	0xbdd2df7e	-0.10296534
37	0xbd416d60	-0.04722345
38	0x3e885a03	0.26631173
39	0x3ec28c14	0.37997496
40	0xbe0187a1	-0.12649395
41	0x3e8e6edd	0.27818957
42	0x3e1bc492	0.15211704
43	0xbb469eb6	-0.0030307001
44	0xbe3fea03	-0.18741612
45	0x3d2eb4ae	0.04265278
46	0xbe196d0b	-0.14983003
47	0xbdd6b5c8	-0.10483891
48	0xbd21548b	-0.039387267
49	0xbd30267d	-0.043005455
50	0xbc27528f	-0.010212555
51	0x3e4574f3	0.19282894
52	0x3e0634a5	0.1310602
53	0xbd320b27	-0.043467667
54	0xbc7b8d04	-0.015353445
55	0x3da939b5	0.0826296
56	0x3e014148	0.12622559
57	0xbe202348	-0.15638459
58	0x3e79934a	0.24372593
59	0x3e5881e2	0.21143296
60	0xbddcb8df	-0.10777449
61	0x3e9aecfb	0.30258927
62	0xbde3b621	-0.11118723
63	0x3da88ea9	0.08230335
64	0xbbd805a8	-0.006592471
65	0x3d87d383	0.066321395
66	0x3d7fe50f	0.062474307
67	0x3d38cbce	0.04511624
68	0x3d531114	0.05152996
69	0xbe3b347f	-0.18281744
70	0x3dadb534	0.084818274
71	0x3eced829	0.40399292
72	0xbda07c50	-0.07836211
73	0xbd5d78f0	-0.054070413
74	0xbe19b034	-0.15008622
75	0xbe6d9a65	-0.23203428
76	0x3e0b7bf2	0.136215
77	0x3b0b78a8	0.0021281634
78	0x3e6572bd	0.2240705
79	0xbd0d6c80	-0.0345273
80	0x3e363eff	0.17797469
81	0xbe82f622	-0.2557841
82	0xbcd72c50	-0.026266247
83	0x3e014cc7	0.12626944
84	0x3e18855d	0.14894624
85	0x3e98e62d	0.2986311
86	0xbcca39a7	-0.024685694
87	0xbd63dd10	-0.055630744
88	0x3ded3a9d	0.11583445
89	0x3cb35085	0.02188898
90	0x3e71ca0b	0.2361223
91	0xbdc082ab	-0.09399923
92	0xbddf5dfd	-0.10906599
93	0xbd96868d	-0.07349882
94	0xbe752511	-0.23939921
95	0xbd3454ea	-0.044026293
96	0x3d9553e6	0.07291393
97	0xbdc2bb24	-0.095083505
98	0x3dd07df6	0.10180275
99	0x3bf7a526	0.007557529
100	0x3e00c1a4	0.12573868
101	0x3e1e4ee8	0.15459788
102	0xbe18d70d	-0.14925785
103	0xbd1fa166	-0.03897228
104	0x3d284eea	0.041090883
105	0x3e33c93a	0.1755723
106	0xbe863274	-0.26210368
107	0xbeb8f751	-0.36126187
108	0x3ded4ca7	0.11586886
109	0xbe6329be	-0.22183892
110	0xbc9f7980	-0.019467115
111	0xbdd1403c	-0.1021733
112	0xbe4e2066	-0.20129547
113	0xbd298af8	-0.041392297
114	0x3cc5188b	0.024059555
115	0xbe36a4f7	-0.17836367
116	0xbdce862b	-0.10084184
117	0x3d9b280b	0.07575997
118	0x3daa5c56	0.08318393
119	0xbe0b23ff	-0.1358795
120	0x3d557ec5	0.05212285
121	0xbe2a90f8	-0.16656864
122	0xbd93ee94	-0.072232395
123	0xbe7f65e5	-0.24941213
124	0xbe4a23b3	-0.1974018
125	0xbda835bf	-0.08213376
126	0xbe5193e9	-0.2046658
127	0x3dc1d451	0.09464324
128	0xbc2557f2	-0.010091769
129	0x3eb6d329	0.35707977
130	0x3e14affb	0.14520256
131	0x3cd35cd2	0.025801096
132	0xbd93b981	-0.072131164
133	0x3e12d32c	0.14338368
134	0x3df83c0a	0.121208265
135	0x3e46a474	0.19398671
136	0xbde271ac	-0.110568374
137	0xbe8034a4	-0.25040162
138	0x3e3c34c4	0.18379503
139	0x3cdc9eef	0.026931254
140	0xbc03e110	-0.008049265
141	0x3cad2316	0.021134894
142	0x3c1fabc6	0.009745544
143	0xbcc00e25	-0.023444245
144	0x3daa1fae	0.08306824
145	0xbda5fd0b	-0.08104905
146	0x3e01063a	0.12600031
147	0x3e4d739f	0.20063637
148	0xbd28722f	-0.04112452
149	0x3d83524b	0.064121805
150	0xbdc89278	-0.09793562
151	0x3e64e361	0.22352363
152	0xbdeadc43	-0.11467793
153	0xbd630703	-0.05542661
154	0xbd5e6a7c	-0.05430077
155	0x3cf55b28	0.029950693
156	0x3d17828f	0.036989745
157	0xbe689913	-0.22714643
158	0x3e7ba05c	0.24572891
159	0xbdabe590	-0.08393395
160	0x3d8ffc6f	0.0703057
161	0xbd8ca034	-0.06866494
162	0x3d5cf0d9	0.053940628
163	0xbe67e2a1	-0.22645046
164	0xbe516bf1	-0.20451333
165	0x3d5ce4ed	0.05392926
166	0x3dd78a49	0.10524423
167	0xbd7355b8	-0.05940792
168	0xbdb63538	-0.088968694
169	0xbd58fab6	-0.05297347
170	0x3e710381	0.23536493
171	0x3df72d67	0.12069207
172	0xbe31569a	-0.17318192
173	0xbd567b79	-0.052363846
174	0x3d8f7e61	0.07006527
175	0xbe79fb61	-0.244123
176	0x3e0ed94e	0.13950083
177	0x3e299816	0.16561922
178	0x3d9a0ff7	0.07522576
179	0xbe5ab565	-0.21358259
180	0x3dd5a34a	0.104315355
181	0xbcd962a2	-0.02653629
182	0xbdf2dc32	-0.11858405
183	0xbdb982cc	-0.09058151
184	0x3d8ef5ca	0.06980474
185	0x3d0ffa8b	0.035151046
186	0x3acf0d7a	0.0015796863
187	0x3e169bbf	0.1470785
188	0x3d537352	0.05162365
189	0xbe2b3ec2	-0.16723159
190	0x3c050ec9	0.008121201
191	0x3e98ec26	0.29867667
192	0xbe1b310d	-0.1515543
193	0xbcef6e39	-0.029227363
194	0x3e2a2e0a	0.16619125
195	0x3e4a6543	0.19765191
196	0xbe0cafca	-0.13738933
197	0xbe5ca6b3	-0.21547966
198	0x3c11add9	0.008891546
199	0xbd10af56	-0.035323463
200	0x3d455d49	0.048184667
201	0x3e341990	0.17587876
202	0x3e0b0e4d	0.13579674
203	0x3cb9547f	0.022623299
204	0x3e1979a2	0.14987805
205	0x3e410531	0.18849637
206	0xbc7f5d66	-0.015586233
207	0x3c1cef51	0.009578542
208	0x3e1238f7	0.14279543
209	0xbd04ebc0	-0.03245139
210	0xbba6e122	-0.005092756
211	0x3dc59fa9	0.096495934
212	0x3c9fb52a	0.019495565
213	0xbe64ab0f	-0.22330879
214	0x3cf1441d	0.029451424
215	0xbd6c0952	-0.057626076
216	0x3e1bc29e	0.1521096
217	0x3dfd7e06	0.12377553
218	0x3dea5b11	0.11443151
219	0xbdfd8dd3	-0.123805664
220	0xbcae3ce8	-0.021269277
221	0xbe31897f	-0.17337607
222	0xbb97acb2	-0.004628741
223	0xbd4f89fe	-0.05066871
224	0xbd161f39	-0.03665087
225	0x3e43267e	0.19057652
226	0xbdaf7f7a	-0.08569236
227	0x3e137328	0.14399397
228	0xbe0449bb	-0.12918751
229	0x3acc6d67	0.0015596569
230	0x3d84b438	0.064796865
231	0x3e4bd8f7	0.19906984
232	0xbe36767c	-0.17818636
233	0x3cb69fd1	0.022293003
234	0xbd2c380c	-0.042045638
235	0x3e5255bd	0.20540519
236	0xbe6ebb68	-0.23313677
237	0xbe0a8a17	-0.1352924
238	0xbe4d38be	-0.20041177
239	0x3e23872b	0.15969531
240	0xbe4628d9	-0.1935152
241	0xbe2f944e	-0.17146417
242	0xbdd520d0	-0.10406649
243	0xbe1042bb	-0.14087956
244	0xbe2bc399	-0.16773833
245	0xbe86e963	-0.26349935
246	0x3d229b35	0.0396988
247	0x3cacf91b	0.021114876
248	0xbe1fa70c	-0.15591067
249	0xbe479489	-0.19490255
250	0xbe01e615	-0.12685426
251	0x3e5ba6e2	0.2145038
252	0xbcbde1d9	-0.023178982
253	0x3e4ef5ac	0.20210904
254	0xbd8854df	-0.06656813
255	0xbd93f2d3	-0.072240494

pi.net.0.bias f4 [50]
0	0x3e76e388	0.24110234
1	0x3dc3779a	0.095442966
2	0x3e9ee11d	0.31031123
3	0x3e062845	0.13101299
4	0x3c1d919f	0.009617238
5	0x3e3c324b	0.1837856
6	0x3e6e2cd3	0.23259287
7	0x3dac5198	0.08414
8	0x3dfac62d	0.1224483
9	0x3e0d1785	0.13778503
10	0x3d12629b	0.03573857
11	0xbd645404	-0.055744186
12	0xbd4cd5ce	-0.050008588
13	0x3dfe509d	0.124177195
14	0x3da3fd55	0.080073036
15	0x3e4ae439	0.19813623
16	0x3d09822b	0.033571403
17	0x3e4060ca	0.18786922
18	0x3d7c9797	0.061668005
19	0xbe2a9aa4	-0.16660553
20	0x3e85705f	0.26062295
21	0x3d4aac49	0.04948071
22	0xbd3ef223	-0.04661764
23	0x3e3b8581	0.18312646
24	0x3e51dfb4	0.20495492
25	0x3dd1943d	0.10233352
26	0x3d8dec6c	0.069298595
27	0xbcbe805a	-0.023254562
28	0x3deafa2a	0.11473496
29	0xbd66ce3b	-0.05634902
30	0x3cb6e178	0.022324309
31	0x3e297e4e	0.16552088
32	0xbd87156a	-0.06595881
33	0x3dd713e4	0.10501841
34	0xbe2bc269	-0.1677338
35	0x3d316c30	0.043316066
36	0x3dfe16df	0.12406706
37	0xbcb2a4d0	-0.021807104
38	0xbdec0ead	-0.11526237
39	0xbaf13e95	-0.0018405492
40	0x3e30747e	0.17231938
41	0x3e009e2d	0.1256034
42	0x3e82b995	0.25532213
43	0x3ea8bd31	0.32956842
44	0xbe8016ff	-0.25017545
45	0xbdd3b0b5	-0.103364386
46	0xbdd29058	-0.10281438
47	0x3d1586bb	0.036505442
48	0x3e3a25a5	0.18178423
49	0xbe5fb31c	-0.21845669

pi.net.2.weight f4 [50, 50]
0	0x3c248f8f	0.010043993
1	0x3e524d59	0.20537318
2	0x3db00b55	0.085959114
3	0x3e75aec5	0.2399245
4	0x3da86502	0.08222391
5	0x3e18b696	0.14913401
6	0xbcf19462	-0.0294897
7	0x3e24f006	0.16107187
8	0x3cc84c57	0.024450464
9	0x3d1500f4	0.036377862
10	0x3dca2490	0.09870255
11	0xbbffa270	-0.0078013465
12	0x3d3fcb21	0.04682458
13	0x3e0ff92b	0.14059894
14	0xbe29668b	-0.16543023
15	0x3df38a79	0.11891646
16	0xbb37a55b	-0.0028022144
17	0x3d714285	0.05890133
18	0x3da36f89	0.07980258
19	0xbdccbd04	-0.09996989
20	0x3e5c4089	0.21508993
21	0x3e1389be	0.14408013
22	0xbdb598aa	-0.08867009
23	0xbcff11c8	-0.031136408
24	0x3db3fe71	0.08788765
25	0x3e231cff	0.1592903
26	0xbdeddfd7	-0.1161496
27	0x3c7af7e4	0.015317891
28	0x3e42f4ca	0.19038692
29	0xbc93748e	-0.017999914
30	0xbd0cf83c	-0.034416422
31	0x3d1d24a0	0.038365006
32	0x3cc67241	0.024224402
33	0xbcc89ae0	-0.024487913
34	0x3d9cdd1b	0.0765936
35	0xbddee05f	-0.10882639
36	0xbcc5ca94	-0.024144448
37	0xbe159bf8	-0.14610279
38	0x3e357aa8	0.17722571
39	0x3d4b2f68	0.049605757
40	0xbc84d8e4	-0.016216703
41	0xbcba9d1e	-0.022779997
42	0xbd28707a	-0.04112289
43	0x3d4ab430	0.049488246
44	0xbe0ca00f	-0.13732933
45	0xbe5f0bfb	-0.21781914
46	0x3b92f648	0.0044849254
47	0xbca3dd24	-0.020002909
48	0xbdf24c07	-0.11830907
49	0x3dbb589f	0.091477625
50	0xbd76d2c2	-0.060259588
51	0xbe0de44c	-0.1385662
52	0xbe13f51f	-0.14448975
53	0x3dd6589a	0.10466118
54	0x3d9d4eda	0.07681055
55	0x3dc4ad12	0.09603323
56	0x3e08a5ae	0.13344452
57	0xbdbee5d5	-0.09321181
58	0x3d25b2e1	0.040453795
59	0x3d7ab549	0.061208043
60	0x3e46dbfc	0.19419855
61	0x3d6ff2b3	0.058581065
62	0xbe2306b3	-0.15920524
63	0x3da95c15	0.082695164
64	0xbd440a3d	-0.047861326
65	0xbd9fff31	-0.07812346
66	0x3c74dd2f	0.014945312
67	0x3d84a887	0.064774565
68	0xbdd4cbcc	-0.10390434
69	0xbddc52ce	-0.10757981
70	0x3cc71a4c	0.024304532
71	0x3dd88d86	0.105738685
72	0xbda1077b	-0.07862755
73	0x3dfd2981	0.12361432
74	0x3d22149b	0.039570432
75	0xbde0c3f8	-0.10974878
76	0xbe2e79e5	-0.17038687
77	0x3df5a41b	0.11994191
78	0xbd69f10d	-0.05711465
79	0x3d0f81e4	0.035035983
80	0x3e3a95dc	0.1822123
81	0x3dd1baaf	0.10240685
82	0x3cc42e3a	0.023947824
83	0x3bb3c992	0.0054866755
84	0xbcd07219	-0.025445031
85	0xbda2c02d	-0.07946811
86	0x3de3adae	0.11117111
87	0x3e7eebb3	0.248946
88	0xbe0869d6	-0.13321623
89	0x3e069ed3	0.13146524
90	0x3c945310	0.018106014
91	0x3cd8cf4c	0.026466034
92	0x3d1066b3	0.03525419
93	0xbd8d0661	-0.06885982
94	0xbd832f1f	-0.06405472
95	0x3dbd9709	0.09257323
96	0xbda7fcb6	-0.08202498
97	0x3e0b1052	0.13580444
98	0xbea5a41c	-0.32351768
99	0xbe1bad43	-0.15202813
100	0x3e63cbf1	0.22245766
101	0xbd488c33	-0.04896183
102	0xbc36c1c1	-0.011154593
103	0xbcadeb01	-0.021230223
104	0x3e074c63	0.13212733
105	0x3cd0192e	0.025402632
106	0x3db28828	0.08717376
107	0xbc856be6	-0.016286802
108	0x3d85c010	0.06530774
109	0xbce8422c	-0.028351866
110	0x3e2ed886	0.17074785
111	0x3dc29dc8	0.09502751
112	0x399271a2	0.00027931953
113	0x3cf122d4	0.029435553
114	0x3d661915	0.056176264
115	0xbe653329	-0.22382797
116	0x3dcb6db9	0.09933037
117	0xbd3be647	-0.045873906
118	0x3d0f533f	0.0349915
119	0xbdaaca2b	-0.08339342
120	0x3d098087	0.03356984
121	0x3e086485	0.13319595
122	0x3d98ceac	0.074612945
123	0x3d976888	0.07392985
124	0x3df25b2c	0.11833796
125	0x3d1bef7c	0.038070187
126	0xbdd523cf	-0.104072206
127	0xbdef8f03	-0.11697199
128	0xbe97dd58	-0.2966106
129	0xbca4a819	-0.020099686
130	0x3d84d587	0.064860396
131	0x3db6e855	0.089310326
132	0x3d79903a	0.06092856
133	0x3df5c996	0.1200134
134	0xbca4230d	-0.020036245
135	0x3e616c8b	0.22014062
136	0xbd56829e	-0.05237066
137	0x3d0096fa	0.031393982
138	0xbd607f8d	-0.054809142
139	0x3cda7fc4	0.026672252
140	0x3de9e393	0.114203595
141	0xbcfa5e0e	-0.030562427
142	0xbca58e91	-0.020209583
143	0xbde32d6a	-0.110926464
144	0x3e4754ab	0.19465892
145	0xbcca58f9	-0.024700629
146	0x3cc51c5e	0.024061378
147	0x3d6c6adb	0.057719093
148	0xbe04dd20	-0.12974977
149	0xbdce95ef	-0.10087191
150	0xbd450c75	-0.048107583
151	0x3ea91f70	0.33031797
152	0x3e10dc28	0.14146483
153	0xbd7221e7	-0.059114363
154	0x3de998ac	0.11406073
155	0xbe4b7013	-0.19866972
156	0x3dca0a14	0.098652035
157	0xbe8b7187	-0.27235052
158	0xbe240a51	-0.1601956
159	0xbcc48831	-0.023990722
160	0x3e0d7247	0.13813125
161	0xbdb84b2d	-0.08998714
162	0xbdaa53cf	-0.083167665
163	0xbe3cf898	-0.18454206
164	0xbd759808	-0.05995944
165	0x3d104cc8	0.035229474
166	0xbd7bffd2	-0.061523266
167	0xbe1aa97d	-0.15103717
168	0x3e47ad64	0.19499737
169	0x3d6345fe	0.05548667
170	0xbda4372f	-0.08018338
171	0x3d887fdf	0.066650145
172	0xbd722177	-0.059113946
173	0x3d19f54a	0.03758744
174	0xbe5c08a7	-0.21487676
175	0x3e325162	0.17413858
176	0xbd92649e	-0.071480975
177	0xbd8c45dd	-0.06849263
178	0xbd6d5ced	-0.05794995
179	0x3d74b46d	0.05974238
180	0xbe8e969b	-0.27849278
181	0xbcac6f7c	-0.021049254
182	0x3de7b73f	0.11314248
183	0x3e334218	0.17505682
184	0xbdd52eff	-0.104093544
185	0x3d117518	0.03551206
186	0x3cd98eea	0.026557405
187	0x3c788318	0.015167974
188	0x3e3c0b0a	0.18363586
189	0x3b2ea963	0.0026651255
190	0xbeb518b3	-0.35370407
191	0xbdfa7608	-0.12229544
192	0x3d748aa0	0.059702516
193	0x3e24558e	0.16048262
194	0x3ce5645f	0.028001962
195	0xbd1286c0	-0.03577304
196	0xbd8f9bfe	-0.07012175
197	0x3c55740c	0.013028156
198	0x3e8bb13b	0.27283654
199	0xbbd8a1c0	-0.006611079
200	0x3d75e7ee	0.06003564
201	0xbe2087a7	-0.15676747
202	0x3d00a0db	0.031403404
203	0x3c8f4957	0.017491026
204	0x3ead8c02	0.3389588
205	0x3e03615e	0.12830111
206	0x3e59b789	0.2126142
207	0xbd05e5d0	-0.03268987
208	0x3dc77e9a	0.09740944
209	0xbd7c5afe	-0.061610214
210	0xbd395a79	-0.045252297
211	0x3da64f8b	0.0812064
212	0xbde5dc93	-0.11223712
213	0x3d6a83b4	0.05725451
214	0xbe2e58ee	-0.17026111
215	0x3b631c30	0.0034654252
216	0x3d4de948	0.050271302
217	0x3cd54f4b	0.026038786
218	0x3dac6df7	0.08419412
219	0xbda15e3c	-0.07879302
220	0xbe212381	-0.157362
221	0xbd93eb45	-0.072226085
222	0x3e022ced	0.1271245
223	0x3d031886	0.03200581
224	0xbdaea8f5	-0.0852832
225	0xbdcb8a8c	-0.09938535
226	0xbd025c74	-0.03182645
227	0x3df7d919	0.12101955
228	0x3e17c12a	0.1481978
229	0x3d4fab82	0.050700672
230	0x3d58d5c5	0.05293824
231	0xbd0dc571	-0.034612123
232	0x3e54fada	0.20798817
233	0x3e8bb577	0.27286884
234	0x3de7a8db	0.113115035
235	0xbdddeac4	-0.108357936
236	0x3df30499	0.11866111
237	0x3e1f1440	0.15535069
238	0xbddad405	-0.10684971
239	0x3d301267	0.0429863
240	0xbe0cce6d	-0.1375062
241	0x3dd558c6	0.10417323
242	0xbd89a279	-0.06720442
243	0x3d201d16	0.03909024
244	0xbddf48fe	-0.10902594
245	0x3d94bfb2	0.072631255
246	0xbdf52ddb	-0.11971637
247	0x3e560798	0.20901334
248	0x3c0acea6	0.00847212
249	0x3d65f3bb	0.056140643
250	0xbe43f458	-0.19136178
251	0x3cafebfe	0.021474835
252	0xbe04c9ba	-0.12967578
253	0x3e8a2f2c	0.26989114
254	0xbdf9c8e8	-0.12196523
255	0xbd25c7f3	-0.04047389

pi.net.2.bias f4 [50]
0	0x3d232a90	0.039835513
1	0xbb14cd58	-0.0022705402
2	0xbe148fba	-0.14507952
3	0x3e208ccd	0.15678711
4	0xbb801895	-0.0039091804
5	0x3d9caa6a	0.076496914
6	0x3df295c4	0.11844972
7	0x3b2e3d13	0.0026586696
8	0xbda627e8	-0.0811308
9	0x3cbaf801	0.022823336
10	0x3e229714	0.15877944
11	0xbdacfa0b	-0.084461294
12	0xbd9cc70e	-0.07655154
13	0xbccadb8b	-0.02476289
14	0xbd7a686d	-0.061134744
15	0x3ca3883a	0.019962419
16	0x3dd08e49	0.10183389
17	0x3d1b3a00	0.03789711
18	0x3dcd5309	0.10025603
19	0xbd9090a0	-0.07058835
20	0xbd85aac4	-0.065267116
21	0x3ce2f2c3	0.027703648
22	0x3bc05463	0.0058694347
23	0x3de8d6e1	0.1136911
24	0x3d1f9db7	0.038968768
25	0xbd4ebdd2	-0.050473996
26	0x3d7aa11a	0.061188795
27	0xbcbb7edf	-0.022887645
28	0x3dbcae5f	0.09212946
29	0x3c3a318d	0.011364353
30	0xbe04cacd	-0.12967987
31	0x3dab2f35	0.083586134
32	0x3d963ec4	0.0733619
33	0xbd164128	-0.03668323
34	0xbde536f6	-0.111921236
35	0x3e185a05	0.1487809
36	0x3c02e2cb	0.007988642
37	0xbd931835	-0.071823515
38	0x3e18d823	0.149262
39	0x3e39739e	0.1811051
40	0x3dc67d30	0.09691846
41	0xbd9dd4a3	-0.07706573
42	0xbd8ee9b1	-0.06978167
43	0x3d2aca19	0.04169664
44	0x3c709dfc	0.014686104
45	0xbe087a61	-0.13327934
46	0xbd87a8f9	-0.06624026
47	0x3d9025a5	0.0703843
48	0x3e8d45e2	0.2759238
49	0x3e704699	0.23464431

pi.net.4.weight f4 [4, 50]
0	0x3e6f2d9e	0.23357245
1	0xbe99cfdd	-0.300414
2	0xbe4099a4	-0.18808609
3	0x3d759879	0.059959862
4	0x3d00bc9a	0.031429864
5	0xbdef55b0	-0.116862655
6	0x3e810e59	0.2520626
7	0x3e4a1269	0.19733585
8	0xbe75ff26	-0.24023113
9	0x3e2611cf	0.16217731
10	0xbd6a93f8	-0.05727002
11	0xbbb62d39	-0.00555959
12	0xbe000af0	-0.12504172
13	0x3e41c4e4	0.18922764
14	0xbcdceba3	-0.02696783
15	0xbb491c95	-0.0030687202
16	0x3e2593ab	0.16169612
17	0x3e815674	0.2526127
18	0x3e4f1581	0.20223047
19	0xbe4777fe	-0.19479367
20	0xbe6b7d34	-0.2299698
21	0x3dda3ed7	0.10656517
22	0x3d62cc47	0.055370595
23	0xbd5d1ef8	-0.053984612
24	0x3db0073f	0.08595132
25	0xbd804c12	-0.06264509
26	0xbe31fee7	-0.17382394
27	0x3e3effaf	0.18652223
28	0x3e29e995	0.1659301
29	0xbd8eca00	-0.06972122
30	0xbd97e6df	-0.07417082
31	0x3e481ca2	0.19542173
32	0xbe069383	-0.13142209
33	0xbda2893a	-0.0793633
34	0x3e3f39f9	0.18674459
35	0x3e172acb	0.14762418
36	0xbdfec71c	-0.12440321
37	0xbe341b6a	-0.17588583
38	0x3e21743a	0.15766993
39	0xbe5ff571	-0.21870972
40	0x3e3bec7f	0.18351935
41	0xbe9be7b9	-0.30450228
42	0xbe9fde2c	-0.3122419
43	0xbe83ae83	-0.2571908
44	0xbe42304b	-0.18963735
45	0xbe654560	-0.22389746
46	0xbe6a6ff6	-0.22894272
47	0x3c221243	0.009892049
48	0x3e327438	0.17427146
49	0x3ed32f1c	0.4124688
50	0x3e4d41bd	0.20044608
51	0xbcc045e0	-0.023470819
52	0xbe4ebbb7	-0.20188795
53	0x3e8bce2e	0.2730574
54	0xbda998df	-0.08281111
55	0x3e88e4be	0.26737016
56	0x3e539e52	0.20665863
57	0xbe77769b	-0.24166338
58	0x3e3e916a	0.18610159
59	0xbd2154e8	-0.039387614
60	0x3e92389d	0.28558818
61	0x3e9860b2	0.29761273
62	0xbeb2f97a	-0.3495596
63	0xbe447e6e	-0.19188854
64	0x3e54bb4c	0.20774573
65	0xbe970489	-0.29495648
66	0xbe404b05	-0.18778618
67	0x3cc484b8	0.023989066
68	0xbdac3a27	-0.08409529
69	0xbe40d28d	-0.18830319
70	0xbe9e6e56	-0.30943555
71	0x3e4f2d75	0.20232184
72	0xbca05ad1	-0.019574555
73	0x3e754cbc	0.23955053
74	0x3bc07189	0.0058729094
75	0xbeaf169c	-0.34196937
76	0x3e27bf23	0.16381507
77	0x3d027832	0.03185291
78	0x3d93dac9	0.07219464
79	0xbe1974fd	-0.14986034
80	0x3e02854e	0.12746164
81	0x3eb1873d	0.3467349
82	0xbd3849fc	-0.044992432
83	0xbcbd3b66	-0.023099612
84	0x3d7f42b0	0.062319458
85	0x3e480484	0.19532973
86	0xbe62c2d2	-0.2214463
87	0x3cd59e8c	0.026076578
88	0x3df22770	0.11823928
89	0x3e6b1de9	0.22960629
90	0xbe1b9927	-0.15195142
91	0xbe5b439a	-0.21412507
92	0x3cd4705b	0.025932482
93	0xbe0a09a1	-0.13480236
94	0x3e06d735	0.13168032
95	0xbe106f0f	-0.14104865
96	0x3e9f84a0	0.31155872
97	0xbe4f3220	-0.20233965
98	0xbdbe7dea	-0.0930136
99	0x3da0441f	0.07825493
100	0x3d882ec9	0.066495486
101	0x3e84ad00	0.2591324
102	0x3d0d81b8	0.034547538
103	0x3d493a06	0.0491276
104	0x3e6b3622	0.22969869
105	0xbdfac4c8	-0.12244564
106	0xbd893c8f	-0.06701004
107	0xbe5d70b7	-0.21625029
108	0xbe28cbcb	-0.16483991
109	0xbea61ee5	-0.32445446
110	0x3e2eb0f0	0.17059684
111	0xbe2eaacc	-0.17057341
112	0xbdd44832	-0.10365333
113	0xbeeda22a	-0.46412784
114	0xbe95adc0	-0.29234123
115	0xbe14de3d	-0.14537902
116	0xbe09e91d	-0.13467832
117	0xbcb5e9cc	-0.02220621
118	0x3e61805d	0.22021623
119	0x3dfd5253	0.12369218
120	0x3ccd38f3	0.02505157
121	0x3e1af887	0.15133868
122	0x3db63f9e	0.08898853
123	0x3d788d0a	0.06068138
124	0x3e356977	0.17716013
125	0xbe51cb84	-0.20487791
126	0x3d1d6df4	0.038434938
127	0x3df813c6	0.121131465
128	0xbdd1adf2	-0.102382556
129	0xbd66fa7a	-0.056391217
130	0x3d755688	0.059896976
131	0xbe357a20	-0.17722368
132	0xbe5392c5	-0.20661457
133	0x3e2fa288	0.17151845
134	0xbe8b2cd6	-0.27182645
135	0x3e1de32a	0.15418687
136	0xbddf6bb7	-0.10909217
137	0xbe3fc02a	-0.18725649
138	0xbec9ffe0	-0.3945303
139	0x3ee190bc	0.44055736
140	0xbe4c5169	-0.1995293
141	0xbd3f4d5e	-0.046704642
142	0x3e789334	0.24274904
143	0xbd2157ad	-0.039390255
144	0xbdbd11a7	-0.092318825
145	0xbe86fb7d	-0.26363745
146	0x3e6e5e0f	0.23278068
147	0x3e68b75c	0.22726196
148	0x3eace9a0	0.33771992
149	0xbe8fc013	-0.28076228
150	0x3d589bf1	0.052883092
151	0xbd131d84	-0.03591682
152	0x3db923fc	0.090400666
153	0xbe5c9eae	-0.21544906
154	0xbded4d4a	-0.11587007
155	0xbe8e6cce	-0.27817386
156	0x3d795f3b	0.060881834
157	0x3b0f1f76	0.002183882
158	0xbe8eea50	-0.2791314
159	0x3ea7a5f0	0.32743788
160	0x3ddc19fa	0.10747142
161	0xbd5325ce	-0.051549725
162	0x3d80d757	0.06291073
163	0x3e9c2088	0.3049357
164	0x3e20034b	0.15626256
165	0x3e75a315	0.23987992
166	0xbd8ba416	-0.06818406
167	0x3e739127	0.2378584
168	0x3e0bf1aa	0.13666406
169	0xbeeede8b	-0.46654162
170	0xbe2880ae	-0.16455337
171	0x3da2b34c	0.079443544
172	0xbe2269d5	-0.15860684
173	0xbe9eec4a	-0.3103965
174	0x3cf7c574	0.03024552
175	0xbe0e3337	-0.13886724
176	0xbd030e12	-0.03199584
177	0x3d23b69f	0.039969083
178	0x3e2d9639	0.16951837
179	0x3e6a3f22	0.22875646
180	0x3d6f009d	0.058350194
181	0xbdad9893	-0.08476367
182	0xbe19833b	-0.14991467
183	0x3e87946b	0.2648042
184	0xbea2ae00	-0.31773376
185	0xbe604bab	-0.21903865
186	0x3e163ec1	0.14672376
187	0x3db91c1c	0.090385646
188	0x3d52912c	0.051407978
189	0xbd9ede76	-0.07757275
190	0x3dcc6d7b	0.09981819
191	0xbddc8c08	-0.10768896
192	0xbdd6b703	-0.104841255
193	0x3da03ce1	0.07824112
194	0xbeb81deb	-0.35960326
195	0xbd397184	-0.045274273
196	0x3c9a23c4	0.018815883
197	0x3e01778d	0.12643261
198	0x3eb88497	0.36038658
199	0xbeb8d4e4	-0.36099923

pi.net.4.bias f4 [4]
0	0x3db753fe	0.08951567
1	0xbdb753d9	-0.089515395
2	0x3c747a0c	0.014921676
3	0xbd405589	-0.046956573

v.net.0.weight f4 [64, 34]
0	0x3d8a45fd	0.067516305
1	0xbd1edd7d	-0.038785446
2	0xbd3ca70a	-0.04605774
3	0x3cbbc518	0.02292113
4	0xbd880c6a	-0.06642993
5	0x3d7cf4a1	0.061756734
6	0xbdef9665	-0.11698607
7	0x3e4344ad	0.19069166
8	0x3d642a57	0.05570444
9	0x3e3211a1	0.17389537
10	0xbce0bccf	-0.027433781
11	0x3e29b106	0.16571435
12	0x3b95c5ef	0.0045707147
13	0x3c885c07	0.016645445
14	0x3cd5e47a	0.026109923
15	0x3dea606c	0.11444172
16	0xbd80e6a4	-0.06293991
17	0xbcc22933	-0.023701286
18	0x3da0e6c2	0.078565136
19	0xbd8878a4	-0.066636354
20	0x3dff53c4	0.12467149
21	0xbd06a46a	-0.03287164
22	0x3d068e19	0.03285036
23	0x3d5a8176	0.05334612
24	0x3e0f3530	0.13985133
25	0xbd2638ca	-0.040581502
26	0xbd86bd77	-0.06579106
27	0xbd5b8488	-0.05359319
28	0xbd893b06	-0.06700711
29	0x3d226c5e	0.03965413
30	0x3d925302	0.07144739
31	0x3db83797	0.08994978
32	0x3da2a8bb	0.07942339
33	0x3d105dcf	0.035245713
34	0x3dc2c8f7	0.09510987
35	0xbc20fe4e	-0.009826256
36	0x3bd8a3b4	0.006611312
37	0xbdd0337a	-0.101660684
38	0xbdbf8540	-0.09351587
39	0xbccb5bae	-0.02482399
40	0x3d907d3d	0.07055137
41	0xbd200e8f	-0.039076384
42	0x3e5b6ce0	0.21428251
43	0xbddf9ab0	-0.10918176
44	0xbd81d83f	-0.06340074
45	0x3c10c0d0	0.008835033
46	0xbd33a1a3	-0.04385532
47	0xbc958892	-0.018253598
48	0xbd83148a	-0.06400402
49	0x3d19acbb	0.037518244
50	0xbd98d8cd	-0.074632265
51	0x3d5fb8d2	0.054619618
52	0xbddb9e02	-0.10723497
53	0xbdfbaa7e	-0.12288378
54	0xbd023548	-0.031789094
55	0xbc3c5213	-0.011494177
56	0xbe0a16e2	-0.13485292
57	0xbd53a5de	-0.051671855
58	0xbe2b3b63	-0.16721873
59	0xbdb360f8	-0.0875873
60	0x3e090acb	0.13383023
61	0x3e41752c	0.18892354
62	0x3dc38789	0.09547336
63	0xbe251669	-0.1612183
64	0xbda99e2b	-0.08282121
65	0xbd88cb9a	-0.06679459
66	0x3d96231b	0.073309146
67	0xbd5a12e6	-0.05324068
68	0xbe18933a	-0.14899912
69	0x3d883c4b	0.06652125
70	0xbd6e83b8	-0.058231086
71	0xbe79ec9d	-0.24406667
72	0xbe328390	-0.17433
73	0x3ee5a67b	0.44853577
74	0xbdecdc00	-0.11565399
75	0xbe23da90	-0.16001344
76	0xbd814059	-0.063111015
77	0xbdb850c0	-0.08999777
78	0xbd1c178a	-0.038108386
79	0xbc4695c3	-0.012120667
80	0x3c6ccac9	0.014452645
81	0xbcab460a	-0.02090742
82	0xbc86649e	-0.0164054
83	0x3cf13ca2	0.029447857
84	0x3d166654	0.03671868
85	0x3e48730b	0.19575135
86	0x3d2c2a0f	0.042032298
87	0xbe114375	-0.14185889
88	0xbde1fa0b	-0.1103402
89	0xbd66c6e4	-0.05634202
90	0x3d1557f7	0.036460843
91	0x3d8b3d16	0.067987606
92	0xbddfd612	-0.109295025
93	0x3e16f53a	0.14741984
94	0xbe023ad9	-0.12717761
95	0x3d4cd1a5	0.05000462
96	0x3d0cf420	0.034412503
97	0xbdc2739e	-0.094947085
98	0xbc817e2f	-0.01580724
99	0xbd01c8ca	-0.031685628
100	0x3cdbdedf	0.026839672
101	0x3ce3fcf1	0.027830573
102	0x3db293df	0.087196104
103	0x3ac75f63	0.0015210923
104	0x3d02c5a0	0.03192675
105	0xbe07b18d	-0.13251324
106	0xbc07fb5c	-0.008299675
107	0x3dc0e3e7	0.09418469
108	0xbe3bca60	-0.18338919
109	0xbc90b7e8	-0.017665818
110	0x3dda38c6	0.1065536
111	0x3cb6b0a7	0.022301031
112	0xbdc0ebfe	-0.09420012
113	0xbd5f70cf	-0.054550942
114	0xbca35ea4	-0.01994259
115	0x3b101cdd	0.002198986
116	0xbcd8b4ab	-0.026453337
117	0xbd06f3d5	-0.03294738
118	0xbbc83664	-0.0061099995
119	0x3b8d3311	0.004309066
120	0x3afee7f1	0.0019447786
121	0xbdacc1c3	-0.084353946
122	0x3d3a9ae6	0.04555788
123	0xbdbcd8ca	-0.09221037
124	0x3e51e178	0.20496166
125	0xbe179b62	-0.14805368
126	0x3da07b92	0.07836069
127	0xbd2bbcb7	-0.04192802
128	0x3d49e2ae	0.049288444
129	0x3d7effef	0.062255796
130	0x3d9dedc1	0.077113636
131	0x3df56263	0.119816564
132	0x3c8b546f	0.017008035
133	0x3cbdcd67	0.023169233
134	0xbc309ad6	-0.010779103
135	0x3c832b6c	0.016011916
136	0x3c8d0ec5	0.017218957
137	0xbcec3752	-0.028834973
138	0xbec4131f	-0.38295838
139	0x3d47808e	0.048706584
140	0xbc9418d7	-0.01807825
141	0x3d000c46	0.031261705
142	0x3dc5c8c1	0.096574314
143	0xbdedfa46	-0.116200015
144	0xbe15bed0	-0.1462357
145	0xbebe1048	-0.37121797
146	0x3e14cf53	0.14532213
147	0xba903848	-0.0011003101
148	0x3dcc201e	0.09967063
149	0xbd2cf24c	-0.04222326
150	0xbd1f7174	-0.038926557
151	0xbd11b621	-0.035574082
152	0x3cbca180	0.023026228
153	0x3e6203cc	0.22071761
154	0x3ddb605b	0.10711738
155	0xbe879f4a	-0.26488715
156	0x3bdbb45e	0.006704851
157	0x3e0057d5	0.12533505
158	0xbc068034	-0.008209277
159	0xbdf27098	-0.11837882
160	0xbd1f576d	-0.038901735
161	0x3daae71e	0.08344863
162	0xbeb6a2da	-0.3567112
163	0xbd66f3d2	-0.05638487
164	0x3d76d866	0.060264967
165	0xbdb7897b	-0.08961769
166	0xbd655a15	-0.055994112
167	0xbcd1613c	-0.02555906
168	0xbcdbbbbb	-0.026822915
169	0x3c4d50af	0.0125314435
170	0xbe2c1bac	-0.16807431
171	0x3d7ed617	0.06221589
172	0x3c400224	0.01171926
173	0xbc95011f	-0.018189011
174	0x3d90e8c5	0.07075647
175	0x3bef8c3a	0.0073104175
176	0xbcac7ebc	-0.021056525
177	0xbccd8b92	-0.025090966
178	0xbd9a7a17	-0.07542818
179	0xbe26f02a	-0.16302553
180	0x3cc09145	0.02350677
181	0xbd0f5527	-0.034993317
182	0xbdf0daa3	-0.11760452
183	0xbc4fe037	-0.012687734
184	0xbb060cb0	-0.002045434
185	0x3c4a04da	0.012330258
186	0xbbf21673	-0.00738793
187	0x3e007dec	0.12548035
188	0xbe34df11	-0.17663218
189	0x3d066e6b	0.032820147
190	0x3b945b1a	0.0045274617
191	0xbcc09f0e	-0.023513343
192	0x3c9e5716	0.019328635
193	0x3c8c8f73	0.017158246
194	0xbd6e0765	-0.05811252
195	0x3d22d987	0.03975823
196	0x3d24c2aa	0.04022471
197	0xbce3132d	-0.027719105
198	0x3d993114	0.07480064
199	0x3dcc5023	0.09976222
200	0x3c2a0ffd	0.0103797885
201	0x3cc4b5b2	0.02401242
202	0xbc2a6351	-0.010399655
203	0x3c8e3f74	0.017364241
204	0x3e7f6941	0.24942495
205	0xbe9ee3fc	-0.31033313
206	0xbd4ac1d9	-0.049501274
207	0x3ba02e15	0.004888306
208	0x3c896569	0.016771989
209	0x3e2e7b85	0.17039306
210	0x3e036043	0.1282969
211	0x3e02d5a0	0.12776804
212	0xbe28ab9a	-0.16471711
213	0x3e538ef0	0.20659995
214	0x3cb0522a	0.021523554
215	0x3d14fbb7	0.036372866
216	0x3e058533	0.13039093
217	0x3b20ef6f	0.0024556776
218	0x3d42ab5e	0.04752671
219	0x3c23e0a7	0.010002292
220	0x3ccd42c1	0.025056245
221	0x3e4c0ca3	0.19926696
222	0xbee21a1d	-0.44160548
223	0x3d0108de	0.031502597
224	0x3e9832ee	0.29726356
225	0x3d82770f	0.06370365
226	0x3e9bb6fb	0.3041304
227	0x3dba9546	0.09110503
228	0x3e9557ee	0.29168648
229	0xbb2ba0b3	-0.0026188313
230	0x3d166f72	0.036727376
231	0x3dae6dab	0.08517011
232	0xbdc48fd8	-0.095977485
233	0xbd354ef4	-0.04426475
234	0x3c50025d	0.012695876
235	0x3d1bf35b	0.03807388
236	0x3a63826b	0.00086787966
237	0x3d017386	0.031604312
238	0x3d1a2100	0.037629128
239	0x3e20daa2	0.15708402
240	0xbc85145b	-0.016245058
241	0xbd252ffb	-0.04032896
242	0xbd33d88d	-0.04390769
243	0xbbe18db9	-0.0068833497
244	0xbdc6ddad	-0.0971025
245	0xbde64b6f	-0.112448566
246	0xbd6efa2a	-0.058344044
247	0x3dd48175	0.103762545
248	0x3d5b16f2	0.05348868
249	0xbcc83b06	-0.024442207
250	0x3e24fbb4	0.16111642
251	0x3ab19080	0.0013547093
252	0xbc51fc53	-0.012816506
253	0x3da9eed6	0.082975075
254	0xbbaeeb62	-0.0053381184
255	0xbc488ece	-0.012241079

v.net.0.bias f4 [64]
0	0xbe6f400f	-0.2336428
1	0xbe9130de	-0.28357595
2	0xbe0c15e8	-0.13680232
3	0xbe742f79	-0.23846234
4	0xbe48aaae	-0.19596359
5	0x3e956feb	0.2918695
6	0x3f17f467	0.59357303
7	0xbe2f2e7b	-0.17107575
8	0x3f2b8eb1	0.67014605
9	0x3e55fb70	0.20896697
10	0x3c94b991	0.018154891
11	0x3e4df455	0.20112737
12	0xbc19fc7f	-0.009398579
13	0x3e970852	0.29498535
14	0xbd275f0b	-0.040862124
15	0xbe0c28b9	-0.1368741
16	0xbe5cbb06	-0.21555719
17	0xbe42b40d	-0.19013996
18	0x3e801f42	0.25023848
19	0x3dd3e6ae	0.10346733
20	0xbdde4580	-0.108531
21	0x3e2697f8	0.16268909
22	0x3d8a17f5	0.06742851
23	0xbe71e196	-0.2362121
24	0xbcb7f3ae	-0.022455063
25	0x3b9e550f	0.004831917
26	0xbea61210	-0.32435656
27	0x3e4b34c3	0.19844346
28	0xbe8c00d6	-0.27344388
29	0xbe5a4e0c	-0.21318835
30	0x3e2f7341	0.1713381
31	0x3ea8090b	0.328194
32	0x3ddd3a5c	0.10802147
33	0x3cff8189	0.031189697
34	0x3e0bc416	0.1364902
35	0xbd084030	-0.03326434
36	0x3dfaecf4	0.122522265
37	0x3e629220	0.22126055
38	0x3e8727ef	0.26397654
39	0xbea1e86a	-0.3162263
40	0x3e5febc0	0.21867275
41	0x3e1c02ee	0.15235493
42	0xbe404b97	-0.18778835
43	0x3e26a13f	0.16272448
44	0x3e25da12	0.16196468
45	0x3cdcb2fc	0.026940815
46	0xbe6ceda1	-0.23137523
47	0x3e9e8522	0.30960947
48	0xbe474e59	-0.19463481
49	0x3eb19a96	0.34688252
50	0x3f0379ae	0.51357543
51	0x3ce47065	0.027885625
52	0xbced4eba	-0.028968204
53	0xbea9e523	-0.3318263
54	0xbe59470b	-0.21218507
55	0xbc81c5f2	-0.015841458
56	0x3e1285ae	0.14308807
57	0xbd95ddb8	-0.0731768
58	0x3e4a2e76	0.19744286
59	0xbe2f7293	-0.1713355
60	0x3e94b64e	0.29045337
61	0x3e90dcb9	0.28293398
62	0x3e74a64b	0.2389156
63	0x3f3784f6	0.7168726

v.net.2.weight f4 [64, 64]
0	0xbdd15a9b	-0.1022236
1	0x3dfcd7c6	0.12345843
2	0xbe0c066e	-0.13674328
3	0xbe161ab6	-0.14658627
4	0x3e559a1d	0.20859571
5	0xbc27ca3a	-0.010241086
6	0xbec4079b	-0.38287053
7	0xbce93edf	-0.028472362
8	0xbe4803ec	-0.19532746
9	0x3da9802c	0.082764
10	0xbd70f906	-0.058831237
11	0xbea10bb2	-0.31454235
12	0x3d81cb97	0.0633766
13	0x3db41469	0.087929554
14	0x3e138c7d	0.14409061
15	0xbb19e6f9	-0.0023483618
16	0xbcea9a71	-0.028638097
17	0xbdb0d26b	-0.08633884
18	0xbd6018fe	-0.054711334
19	0xbcd152fe	-0.02555227
20	0x3e1f2236	0.15540394
21	0x3e05c0e5	0.13061865
22	0xbe5580a6	-0.20849857
23	0xbe53a974	-0.2067011
24	0xbe17881e	-0.14798018
25	0x3d8a661a	0.067577556
26	0xbde0b799	-0.109725185
27	0xbd22ca9e	-0.039744012
28	0xbdce4309	-0.1007138
29	0x3c434d27	0.01192025
30	0x3e5a0c61	0.21293785
31	0x3d0aecdd	0.033917297
32	0x3c2ca250	0.010536745
33	0xbc99000e	-0.018676784
34	0x3db60ff4	0.088897616
35	0xbdd382a0	-0.10327649
36	0xbd92f93e	-0.071764454
37	0x3e9ba372	0.30398136
38	0x3dd1b8d8	0.10240334
39	0xbcde6210	-0.02714637
40	0x3ec5fe27	0.38670465
41	0x3d649f2d	0.055815864
42	0xbe567ba2	-0.209456
43	0xbe004330	-0.1252563
44	0x3d66be9a	0.056334116
45	0xbe7af537	-0.24507605
46	0xbe3593f7	-0.17732225
47	0xbd00cebb	-0.031447154
48	0xbdfab914	-0.12242332
49	0xbf0197e6	-0.50622404
50	0x3d32ebc2	0.043681867
51	0xbdc86035	-0.09783975
52	0xbe8c9791	-0.27459386
53	0xbd24491b	-0.04010878
54	0xbde8c630	-0.11365926
55	0xbe514b03	-0.20438771
56	0xbdf365be	-0.1188464
57	0x3eb6ace6	0.35678786
58	0xbaf11afc	-0.0018394883
59	0xbd417282	-0.047228344
60	0xbcb91903	-0.022594934
61	0x3dd051eb	0.101718746
62	0xbcf312df	-0.029672084
63	0xbe918ac6	-0.28426188
64	0x3d841cba	0.06450792
65	0x3d6ec78d	0.058295775
66	0x3e4ea2c6	0.2017928
67	0xbd51fccc	-0.051266477
68	0x3c34271e	0.010995654
69	0x3d861193	0.06546321
70	0x3e07452a	0.13209978
71	0x3dc101a3	0.0942414
72	0x3d40e357	0.04709181
73	0xbe0d3ec5	-0.13793476
74	0xbd128549	-0.035771642
75	0x3e125c84	0.14293104
76	0xbe4310e9	-0.1904942
77	0x3cadfe2e	0.021239366
78	0x3d9e2c44	0.07723287
79	0xbd244c4a	-0.040111817
80	0xbcf48ec8	-0.02985324
81	0x3e24a55a	0.16078702
82	0xbd2d3503	-0.042286884
83	0xbc393c12	-0.011305826
84	0x3de7b275	0.11313335
85	0xbe1980e4	-0.14990574
86	0xbe1faa21	-0.15592243
87	0x3e304fc1	0.17217924
88	0x3e2b287a	0.1671466
89	0x3df4d45b	0.11954566
90	0x3de3eaf1	0.11128796
91	0xbd9d9e01	-0.076961525
92	0x3d33ed37	0.043927398
93	0x3c7f3b98	0.015578173
94	0x3e14b988	0.145239
95	0xbe5f3908	-0.217991
96	0x3e0d769c	0.13814777
97	0xbe3eaed1	-0.18621375
98	0x3cd65743	0.026164657
99	0x3d7b6fa1	0.061385754
100	0xbd930888	-0.071793616
101	0xbd250087	-0.040283706
102	0x3d5d6455	0.054050762
103	0xbeb5ba10	-0.35493517
104	0xbe4b55c7	-0.1985694
105	0x3e0e4774	0.13894445
106	0x3d8836b3	0.06651058
107	0xbc79fe71	-0.015258417
108	0x3cfd5071	0.030922147
109	0xbc9fc945	-0.019505152
110	0xbd504349	-0.050845418
111	0x3d6fa075	0.058502633
112	0xbd3f34fd	-0.046681393
113	0x3e6e470b	0.23269288
114	0x3e975188	0.2955439
115	0xbd8ca040	-0.06866503
116	0x3e5b5f68	0.21423113
117	0xbc229465	-0.009923075
118	0xbc67df86	-0.014152413
119	0x3dae8887	0.08522134
120	0x3e59f4f7	0.21284853
121	0xbe8eee17	-0.27916023
122	0x3d6976c2	0.056998022
123	0xbd758220	-0.05993855
124	0x3bab65cb	0.0052306405
125	0xbe2d4599	-0.1692108
126	0x3d08c980	0.03339529
127	0x3d300744	0.04297568
128	0x3dad61f1	0.084659465
129	0xbe510a52	-0.20414093
130	0xbdec47ab	-0.11537107
131	0xbd855281	-0.06509877
132	0xbd5ed47d	-0.054401863
133	0x3d4c9c7f	0.049953934
134	0x3b9cc93d	0.0047847317
135	0x3dd2483e	0.10267685
136	0x3eacbb07	0.3373644
137	0x3cd64352	0.026155148
138	0x3e72ee54	0.23723727
139	0xbdf1f153	-0.11813607
140	0x3e876c9d	0.26450053
141	0xbe3df4d5	-0.18550427
142	0xbe74ba71	-0.23899247
143	0x3e4b65b8	0.19863021
144	0xbdf8557f	-0.12125682
145	0x3dffd032	0.12490882
146	0x3c9b0f81	0.018928291
147	0xbe35ad10	-0.177418
148	0xbe3b449a	-0.18287888
149	0x3b880688	0.004151169
150	0x3d417426	0.04722991
151	0x3d7cf79c	0.061759576
152	0xbd5aa68b	-0.053381484
153	0x3d94ca81	0.07265187
154	0x3de2a7af	0.11067139
155	0xbbc8463f	-0.0061118896
156	0x3d5f924a	0.05458287
157	0x3e2b954b	0.1675617
158	0xbe0a3995	-0.13498528
159	0x3cfba94b	0.030720374
160	0xbd8f8d57	-0.0700938
161	0x3dc48843	0.09596302
162	0xbe3bca87	-0.18338977
163	0x3dbf4735	0.093397535
164	0xbdbaf748	-0.091291964
165	0x3e25cc84	0.16191298
166	0x3deb8dac	0.11501631
167	0xbce47ced	-0.0278916
168	0xbced0206	-0.028931629
169	0xbcdf5634	-0.027262785
170	0x3d0ec979	0.034860108
171	0x3d0abb76	0.033870183
172	0x3e3fe62c	0.18740147
173	0xbbd48a54	-0.0064862166
174	0xbd945925	-0.072435655
175	0xbd3f1b4f	-0.046656903
176	0xbe7c6e09	-0.2465135
177	0xbddda7aa	-0.10822995
178	0x3c08ee3d	0.008357582
179	0xbe47bda5	-0.19505937
180	0xbe40076e	-0.18752834
181	0xbbebf99c	-0.0072013866
182	0xbbb033d5	-0.0053772726
183	0xbe908059	-0.28222921
184	0xbda6f4a7	-0.081521325
185	0x3dec6eb6	0.11544554
186	0xbdbf9786	-0.09355073
187	0x3e2d4404	0.16920477
188	0xbe0dce36	-0.13848194
189	0x3db49512	0.088174954
190	0x3e05a385	0.13050659
191	0x3e9a9649	0.30192783
192	0x3cb8c8a5	0.022556612
193	0x3e0d1075	0.13775809
194	0x3e2104ec	0.15724534
195	0x3d938841	0.07203723
196	0x3a97cb4f	0.0011580976
197	0xbe071e4b	-0.1319515
198	0xbd13d577	-0.036092248
199	0x3de9d41d	0.114174105
200	0xbdd52469	-0.10407335
201	0xbd19af86	-0.037520908
202	0xbd035f90	-0.032073557
203	0xbd7cae88	-0.061689883
204	0xbe10de17	-0.1414722
205	0xbdd0a85c	-0.10188362
206	0x3e737a48	0.23777115
207	0x3e31811d	0.17334409
208	0xbd43da7e	-0.047815792
209	0x3ca75d27	0.02043016
210	0xbd7fa9cf	-0.0624178
211	0xbe3896b7	-0.18026243
212	0x3e04778a	0.12936226
213	0x3d261883	0.04055072
214	0x3def81be	0.11694668
215	0x3df72c2d	0.12068973
216	0xbd825d61	-0.06365467
217	0xbd4e9afd	-0.050440777
218	0x3e1a47a7	0.15066396
219	0xbcd5a23c	-0.026078336
220	0x3e2af83a	0.16696253
221	0x3d982e70	0.07430732
222	0x3db9ad7f	0.09066295
223	0xbbdf7aef	-0.0068200747
224	0xbdd87c6f	-0.10570609
225	0x3d2547b6	0.040351592
226	0x3dccb6d5	0.0999581
227	0xbbd530bc	-0.0065060537
228	0x3cb44bdd	0.02200883
229	0xbe055ef4	-0.13024503
230	0xbdd16eba	-0.102261975
231	0x3cd6c214	0.02621559
232	0xbd970afb	-0.07375141
233	0x3b0de3ea	0.002165074
234	0x3dfe38ef	0.12413203
235	0x3d8307a1	0.063979395
236	0xbe153d15	-0.14574082
237	0xbdc4779b	-0.095931254
238	0x3d80fcef	0.06298243
239	0xbd29fd22	-0.041501172
240	0x3e98bad8	0.2983005
241	0x3d8e5015	0.06948868
242	0xbc269f3f	-0.010169803
243	0x3d9432b6	0.07236235
244	0x3dfe56d7	0.12418907
245	0x3e606a9d	0.2191567
246	0x3e5240eb	0.20532577
247	0xbd42b199	-0.04753265
248	0x3dba866e	0.09107672
249	0x3d57d8cf	0.052697
250	0xbdbd17cd	-0.09233055
251	0x3bc039a9	0.0058662486
252	0xbe575f28	-0.21032393
253	0xbb84a047	-0.004047427
254	0xbd8ceb20	-0.06880784
255	0x3dabdafd	0.08391378

v.net.2.bias f4 [64]
0	0x3e3f8256	0.18702063
1	0xbe235bc7	-0.15952979
2	0xbdfdd237	-0.12393611
3	0xbe8fe6fc	-0.28105915
4	0xbcef10cd	-0.029182816
5	0x3e558900	0.20853043
6	0xbe0d0741	-0.13772298
7	0x3e5348d5	0.20633252
8	0x3e3a0871	0.18167283
9	0x3d12526d	0.03572314
10	0xbdf42651	-0.11921371
11	0x3e0627ff	0.13101195
12	0x3e84e2d9	0.2595432
13	0x3e0dbfee	0.13842747
14	0xbe3838e6	-0.17990455
15	0x3e43325a	0.19062176
16	0x3deb6585	0.11493973
17	0x3d92f017	0.071747
18	0xbe408308	-0.18799984
19	0x3ae9d422	0.001783971
20	0xbda82d88	-0.082118094
21	0xbc034bdb	-0.008013691
22	0x3dcd5bde	0.10027288
23	0x3d025cd6	0.031826816
24	0x3e5d2d67	0.21599351
25	0x3e8e510f	0.27796218
26	0x3e023234	0.12714463
27	0x3d938b37	0.072042875
28	0xbd88b48e	-0.06675063
29	0xbe18313e	-0.14862534
30	0x3dd020bc	0.101624936
31	0xbcc46b2e	-0.023976889
32	0x3cf94ffe	0.030433651
33	0xbe5465f5	-0.20742019
34	0xbe6a39ef	-0.22873662
35	0xbe2986ac	-0.1655528
36	0x3e43a4e4	0.1910587
37	0x3e46332b	0.19355457
38	0x3e593bae	0.21214172
39	0x3e73a3f2	0.23793009
40	0x3e0eef5f	0.139585
41	0xbd12555a	-0.03572593
42	0xbdf6e01f	-0.120544665
43	0x3e91f3d2	0.28506333
44	0xbe263250	-0.1623013
45	0xbe079959	-0.13242091
46	0x3e5356e9	0.20638622
47	0x3df3b69f	0.119000666
48	0x3e295559	0.16536464
49	0x3cc7059f	0.024294673
50	0x3e47e206	0.19519815
51	0xbc665b48	-0.014059849
52	0x3dfcc0a9	0.123414345
53	0xbca763e4	-0.020433374
54	0x3e78b95c	0.24289459
55	0x3e5176fe	0.20455548
56	0x3b8f32cb	0.0043700687
57	0x3c93cf84	0.018043287
58	0xbdca0ede	-0.09866117
59	0xbcefdfc1	-0.029281499
60	0x3e388fd9	0.18023624
61	0xbe4f7641	-0.20259954
62	0xbe2c17aa	-0.16805902
63	0xbdcbdfe7	-0.09954815

v.net.4.weight f4 [1, 64]
0	0xbdd4dc96	-0.10393636
1	0x3e233047	0.15936385
2	0x3df65011	0.1202699
3	0x3e2efc2c	0.17088383
4	0x3dafd686	0.08585839
5	0xbd23fe49	-0.040037427
6	0x3de767de	0.11299108
7	0xbe1e2486	-0.1544362
8	0xbe0db252	-0.13837555
9	0xbcfae157	-0.030625029
10	0x3e34461b	0.17604868
11	0xbe21f9a8	-0.15817893
12	0xbe21d84d	-0.15805168
13	0xbe30b91d	-0.17258115
14	0x3d444188	0.047914058
15	0xbe0715e4	-0.13191944
16	0xbd45afcf	-0.048263367
17	0xbe19171e	-0.14950225
18	0x3e1f9903	0.15585713
19	0xbe0eea17	-0.13956486
20	0x3e1b3437	0.15156637
21	0xbe16c1ae	-0.1472232
22	0xbe0bb811	-0.13644435
23	0xbdbeb455	-0.09311739
24	0xbe44d359	-0.19221248
25	0xbe0285ed	-0.12746401
26	0xbe1b7b6d	-0.15183802
27	0xbe06bc6e	-0.13157818
28	0x3e114f50	0.14190412
29	0x3e1d4cc3	0.15361314
30	0xbe1c5f2e	-0.15270683
31	0xbdfab3c1	-0.122413166
32	0x3d929d3a	0.07158895
33	0x3dc298a7	0.095017724
34	0x3e50b247	0.20380507
35	0x3e250d02	0.16118243
36	0xbe0097e3	-0.1255794
37	0xbddbcfc2	-0.10732986
38	0xbdf5ff2d	-0.120115615
39	0xbe262c10	-0.16227746
40	0xbdf00ae5	-0.11720828
41	0x3dea4fa1	0.11440969
42	0x3dc2599a	0.094897464
43	0xbdaf5666	-0.08561401
44	0x3e42981f	0.19003342
45	0x3e64667d	0.22304721
46	0xbe353070	-0.17694259
47	0xbdd9abb6	-0.106284544
48	0xbdfa1631	-0.12211264
49	0xbdaa4128	-0.08313209
50	0xbe0ee2f4	-0.13953763
51	0x3d91c015	0.07116715
52	0xbe16a3a7	-0.14710866
53	0x3dcc4daa	0.09975751
54	0xbdb792d1	-0.0896355
55	0xbdbe7d5e	-0.09301256
56	0xbdc86129	-0.09784157
57	0x3dfb2ade	0.12264036
58	0x3e22a8f5	0.15884764
59	0x3decac21	0.115562685
60	0xbe43f0bd	-0.19134803
61	0x3e193261	0.14960624
62	0x3dcefb9e	0.10106586
63	0x3e1df2f8	0.15424716
